…
To enable them in other operations, rebuild TensorFlow with the appropriate compiler flags.
2023-08-26 13:18:57.206185: I tensorflow/core/common_runtime/gpu/gpu_device.cc:1525] Created device /job:localhost/replica:0/task:0/device:GPU:0 with 5451 MB memory:  -> device: 0, name: NVIDIA GeForce RTX 4060 Laptop GPU, pci bus id: 0000:01:00.0, compute capability: 8.9
Model: "sequential"
_________________________________________________________________
 Layer (type)                Output Shape              Param #
=================================================================
 conv1 (Conv2D)              (None, 126, 1249, 20)     200

 batch_normalization (BatchN  (None, 126, 1249, 20)    80
 ormalization)

 pool1 (MaxPooling2D)        (None, 63, 312, 20)       0

 dropout1 (Dropout)          (None, 63, 312, 20)       0

 conv2 (Conv2D)              (None, 61, 310, 41)       7421

 batch_normalization_1 (Batc  (None, 61, 310, 41)      164
 hNormalization)

 pool2 (MaxPooling2D)        (None, 30, 77, 41)        0

 dropout2 (Dropout)          (None, 30, 77, 41)        0

 conv3 (Conv2D)              (None, 28, 75, 41)        15170

 batch_normalization_2 (Batc  (None, 28, 75, 41)       164
 hNormalization)

 pool3 (MaxPooling2D)        (None, 14, 18, 41)        0

 dropout3 (Dropout)          (None, 14, 18, 41)        0

 conv4 (Conv2D)              (None, 12, 16, 62)        22940

 batch_normalization_3 (Batc  (None, 12, 16, 62)       248
 hNormalization)

 pool4 (MaxPooling2D)        (None, 3, 4, 62)          0

 dropout4 (Dropout)          (None, 3, 4, 62)          0

 flatten (Flatten)           (None, 744)               0

 Linear1 (Dense)             (None, 256)               190720

 Linear2 (Dense)             (None, 50)                12850

 activation (Activation)     (None, 50)                0

=================================================================
Total params: 249,957
Trainable params: 249,629
Non-trainable params: 328
_________________________________________________________________
(1600, 128, 1251, 1) (1600, 50)
2023-08-26 13:18:59.422972: W tensorflow/python/util/util.cc:368] Sets are not currently considered sequences, but this may change in the future, so consider avoiding using them.
…
2023-08-26 13:19:00.935300: I tensorflow/cc/saved_model/loader.cc:283] SavedModel load for tags { serve }; Status: success: OK. Took 113243 microseconds.
2023-08-26 13:19:00.967074: I tensorflow/compiler/mlir/tensorflow/utils/dump_mlir_util.cc:237] disabling MLIR crash reproducer, set env var `MLIR_CRASH_REPRODUCER_DIRECTORY` to enable.
(400, 128, 1251, 1) (400, 50)
train_data.shape (1600, 128, 1251, 1)
train_label.shape (1600, 50)
end_step:  2000
find prune layer: Linear1
find prune layer: Linear2
Model: "sequential"
_________________________________________________________________
 Layer (type)                Output Shape              Param #
=================================================================
 conv1 (Conv2D)              (None, 126, 1249, 20)     200

 batch_normalization (BatchN  (None, 126, 1249, 20)    80
 ormalization)

 pool1 (MaxPooling2D)        (None, 63, 312, 20)       0

 dropout1 (Dropout)          (None, 63, 312, 20)       0

 conv2 (Conv2D)              (None, 61, 310, 41)       7421

 batch_normalization_1 (Batc  (None, 61, 310, 41)      164
 hNormalization)

 pool2 (MaxPooling2D)        (None, 30, 77, 41)        0

 dropout2 (Dropout)          (None, 30, 77, 41)        0

 conv3 (Conv2D)              (None, 28, 75, 41)        15170

 batch_normalization_2 (Batc  (None, 28, 75, 41)       164
 hNormalization)

 pool3 (MaxPooling2D)        (None, 14, 18, 41)        0

 dropout3 (Dropout)          (None, 14, 18, 41)        0

 conv4 (Conv2D)              (None, 12, 16, 62)        22940

 batch_normalization_3 (Batc  (None, 12, 16, 62)       248
 hNormalization)

 pool4 (MaxPooling2D)        (None, 3, 4, 62)          0

 dropout4 (Dropout)          (None, 3, 4, 62)          0

 flatten (Flatten)           (None, 744)               0

 prune_low_magnitude_Linear1  (None, 256)              381186
  (PruneLowMagnitude)

 prune_low_magnitude_Linear2  (None, 50)               25652
  (PruneLowMagnitude)

 activation (Activation)     (None, 50)                0

=================================================================
Total params: 453,225
Trainable params: 249,629
Non-trainable params: 203,596
_________________________________________________________________
2023-08-26 13:19:02.794411: I tensorflow/stream_executor/cuda/cuda_dnn.cc:366] Loaded cuDNN version 8900
2023-08-26 13:19:03.488693: I tensorflow/stream_executor/cuda/cuda_blas.cc:1774] TensorFloat-32 will be used for the matrix multiplication. This will only be logged once.
…
