…
To enable them in other operations, rebuild TensorFlow with the appropriate compiler flags.
2023-08-25 10:18:41.811947: I tensorflow/core/common_runtime/gpu/gpu_device.cc:1525] Created device /job:localhost/replica:0/task:0/device:GPU:0 with 5455 MB memory:  -> device: 0, name: NVIDIA GeForce RTX 4060 Laptop GPU, pci bus id: 0000:01:00.0, compute capability: 8.9
Model: "sequential"
_________________________________________________________________
 Layer (type)                Output Shape              Param #
=================================================================
 conv1 (Conv2D)              (None, 126, 1249, 30)     300

 batch_normalization (BatchN  (None, 126, 1249, 30)    120
 ormalization)

 pool1 (MaxPooling2D)        (None, 42, 624, 30)       0

 dropout1 (Dropout)          (None, 42, 624, 30)       0

 conv2 (Conv2D)              (None, 40, 622, 60)       16260

 batch_normalization_1 (Batc  (None, 40, 622, 60)      240
 hNormalization)

 pool2 (MaxPooling2D)        (None, 20, 311, 60)       0

 dropout2 (Dropout)          (None, 20, 311, 60)       0

 conv3 (Conv2D)              (None, 18, 309, 60)       32460

 batch_normalization_2 (Batc  (None, 18, 309, 60)      240
 hNormalization)

 pool3 (MaxPooling2D)        (None, 6, 154, 60)        0

 dropout3 (Dropout)          (None, 6, 154, 60)        0

 conv4 (Conv2D)              (None, 4, 152, 60)        32460

 batch_normalization_3 (Batc  (None, 4, 152, 60)       240
 hNormalization)

 pool4 (MaxPooling2D)        (None, 1, 50, 60)         0

 dropout4 (Dropout)          (None, 1, 50, 60)         0

 permute (Permute)           (None, 60, 1, 50)         0

 reshape (Reshape)           (None, 50, 60)            0

 LSTM1 (LSTM)                (None, 50, 60)            29040

 LSTM2 (LSTM)                (None, 60)                29040

 dropout5 (Dropout)          (None, 60)                0

 Linear (Dense)              (None, 50)                3050

 activation (Activation)     (None, 50)                0

=================================================================
Total params: 143,450
Trainable params: 143,030
Non-trainable params: 420
_________________________________________________________________
Epoch 1/1000
2023-08-25 10:18:45.141104: I tensorflow/stream_executor/cuda/cuda_dnn.cc:368] Loaded cuDNN version 8900
2023-08-25 10:18:47.044036: I tensorflow/stream_executor/cuda/cuda_blas.cc:1786] TensorFloat-32 will be used for the matrix multiplication. This will only be logged once.
…
